…
m_units=5, optimizer='adam', plot_every=100, pos=False, print_every=100, resume='', save_path='../model9_output/', seed=1111, start_epoch=0, task='yelp', test='test', tokenize=False, word_vectors_directory='../glove/', word_vectors_file='glove.6B.300d.txt')

data.py parse: ../data/yelp/train.txt
data.py parse: ../data/yelp/dev.txt
data.py parse: ../data/yelp/test.txt
train set size =  166102
development set size =  29313
test set size =  34486
vocabulary size =  732097
number of OOV words =  677911
maxout num classes:  5
BCN init num_units:  5
BCN(
  (embedding): EmbeddingLayer(
    (embedding): Embedding(732097, 300)
  )
  (relu_network): Sequential(
    (dense1): Linear(in_features=300, out_features=300, bias=True)
    (nonlinearity): ReLU()
  )
  (encoder): Encoder(
    (rnn): LSTM(300, 300, batch_first=True, dropout=0.2, bidirectional=True)
  )
  (biatt_encoder1): Encoder(
    (rnn): LSTM(1800, 300, batch_first=True, dropout=0.2, bidirectional=True)
  )
  (biatt_encoder2): Encoder(
    (rnn): LSTM(1800, 300, batch_first=True, dropout=0.2, bidirectional=True)
  )
  (ffnn): Linear(in_features=600, out_features=1, bias=True)
  (maxout_network): MaxoutNetwork(
    (fc1_list): ModuleList(
      (0): Linear(in_features=4800, out_features=1200, bias=True)
      (1): Linear(in_features=4800, out_features=1200, bias=True)
      (2): Linear(in_features=4800, out_features=1200, bias=True)
      (3): Linear(in_features=4800, out_features=1200, bias=True)
      (4): Linear(in_features=4800, out_features=1200, bias=True)
    )
    (fc2_list): ModuleList(
      (0): Linear(in_features=1200, out_features=600, bias=True)
      (1): Linear(in_features=1200, out_features=600, bias=True)
      (2): Linear(in_features=1200, out_features=600, bias=True)
      (3): Linear(in_features=1200, out_features=600, bias=True)
      (4): Linear(in_features=1200, out_features=600, bias=True)
    )
    (fc3_list): ModuleList(
      (0): Linear(in_features=600, out_features=5, bias=True)
      (1): Linear(in_features=600, out_features=5, bias=True)
      (2): Linear(in_features=600, out_features=5, bias=True)
      (3): Linear(in_features=600, out_features=5, bias=True)
      (4): Linear(in_features=600, out_features=5, bias=True)
    )
    (batch_norm1): BatchNorm1d(1200, eps=1e-05, momentum=0.1, affine=True)
    (batch_norm2): BatchNorm1d(600, eps=1e-05, momentum=0.1, affine=True)
  )
)
number of trainable parameters =  44052926

TRAINING : Epoch 1
number of train batches =  5191
0m 45s (- 38m 17s) (100 1%) 33.06
1m 29s (- 37m 7s) (200 3%) 34.31
2m 16s (- 37m 0s) (300 5%) 34.09
3m 1s (- 36m 8s) (400 7%) 35.97
3m 45s (- 35m 12s) (500 9%) 36.75
4m 32s (- 34m 45s) (600 11%) 34.66
5m 15s (- 33m 45s) (700 13%) 35.03
6m 1s (- 33m 2s) (800 15%) 35.19
…
