…
sume='', save_path='../model4_output/', seed=1111, start_epoch=0, task='yelp', test='test', tokenize=False, word_vectors_directory='../glove/', word_vectors_file='glove.6B.300d.txt')

data.py parse: ../data/yelp/gm_data/yelp/train.txt
data.py parse: ../data/yelp/gm_data/yelp/dev.txt
data.py parse: ../data/yelp/gm_data/yelp/test.txt
train set size =  600000
development set size =  50000
test set size =  50000
vocabulary size =  1001488
number of OOV words =  921315
maxout num classes:  5
BCN init num_units:  5
BCN(
  (embedding_pos): EmbeddingLayer(
    (embedding): Sequential(
      (embedding): Embedding(37, 50)
      (dropout): Dropout(p=0.2)
    )
  )
  (embedding): EmbeddingLayer(
    (embedding): Sequential(
      (embedding): Embedding(1001488, 300)
      (dropout): Dropout(p=0.2)
    )
  )
  (relu_network): Sequential(
    (dense1): Linear(in_features=350, out_features=300, bias=True)
    (nonlinearity): ReLU()
  )
  (encoder): Encoder(
    (rnn): LSTM(300, 300, batch_first=True, dropout=0.2, bidirectional=True)
  )
  (biatt_encoder1): Encoder(
    (rnn): LSTM(1800, 300, batch_first=True, dropout=0.2, bidirectional=True)
  )
  (biatt_encoder2): Encoder(
    (rnn): LSTM(1800, 300, batch_first=True, dropout=0.2, bidirectional=True)
  )
  (ffnn): Linear(in_features=600, out_features=1, bias=True)
  (maxout_network): MaxoutNetwork(
    (fc1_list): ModuleList(
      (0): Linear(in_features=4800, out_features=1200, bias=True)
      (1): Linear(in_features=4800, out_features=1200, bias=True)
      (2): Linear(in_features=4800, out_features=1200, bias=True)
      (3): Linear(in_features=4800, out_features=1200, bias=True)
      (4): Linear(in_features=4800, out_features=1200, bias=True)
    )
    (fc2_list): ModuleList(
      (0): Linear(in_features=1200, out_features=600, bias=True)
      (1): Linear(in_features=1200, out_features=600, bias=True)
      (2): Linear(in_features=1200, out_features=600, bias=True)
      (3): Linear(in_features=1200, out_features=600, bias=True)
      (4): Linear(in_features=1200, out_features=600, bias=True)
    )
    (fc3_list): ModuleList(
      (0): Linear(in_features=600, out_features=5, bias=True)
      (1): Linear(in_features=600, out_features=5, bias=True)
      (2): Linear(in_features=600, out_features=5, bias=True)
      (3): Linear(in_features=600, out_features=5, bias=True)
      (4): Linear(in_features=600, out_features=5, bias=True)
    )
    (batch_norm1): BatchNorm1d(1200, eps=1e-05, momentum=0.1, affine=True)
    (batch_norm2): BatchNorm1d(600, eps=1e-05, momentum=0.1, affine=True)
  )
)
number of trainable parameters =  344516176

TRAINING : Epoch 1
number of train batches =  18750
THCudaCheck FAIL file=/opt/conda/conda-bld/pytorch_1518244507981/work/torch/lib/THC/generic/THCStorage.cu line=58 error=2 : out of memory
Traceback (most recent call last):
  File "main.py", line 130, in <module>
    train.train_epochs(train_corpus, dev_corpus, test_corpus, args.start_epoch, args.epochs)
…
