…
art_epoch=0, task='yelp', test='test', tokenize=False, word_vectors_directory='../glove/', word_vectors_file='glove.6B.300d.txt')

data.py parse: ../data/yelp/train.txt
data.py parse: ../data/yelp/dev.txt
data.py parse: ../data/yelp/test.txt
train set size =  166102
development set size =  29313
test set size =  34486
using class weighting with distribution:  {1: 15129, 3: 57904, 4: 54831, 2: 25675, 0: 12563}
vocabulary size =  732097
number of OOV words =  677911
maxout num classes:  5
BCN init num_units:  5
BCN(
  (embedding_pos): EmbeddingLayer(
    (embedding): Sequential(
      (embedding): Embedding(37, 50)
      (dropout): Dropout(p=0.2)
    )
  )
  (embedding): EmbeddingLayer(
    (embedding): Sequential(
      (embedding): Embedding(732097, 300)
      (dropout): Dropout(p=0.2)
    )
  )
  (relu_network): Sequential(
    (dense1): Linear(in_features=350, out_features=300, bias=True)
    (nonlinearity): ReLU()
  )
  (encoder): Encoder(
    (rnn): LSTM(300, 300, batch_first=True, dropout=0.2, bidirectional=True)
  )
  (biatt_encoder1): Encoder(
    (rnn): LSTM(1800, 300, batch_first=True, dropout=0.2, bidirectional=True)
  )
  (biatt_encoder2): Encoder(
    (rnn): LSTM(1800, 300, batch_first=True, dropout=0.2, bidirectional=True)
  )
  (ffnn): Linear(in_features=600, out_features=1, bias=True)
  (maxout_network): MaxoutNetwork(
    (fc1_list): ModuleList(
      (0): Linear(in_features=4800, out_features=1200, bias=True)
      (1): Linear(in_features=4800, out_features=1200, bias=True)
      (2): Linear(in_features=4800, out_features=1200, bias=True)
      (3): Linear(in_features=4800, out_features=1200, bias=True)
      (4): Linear(in_features=4800, out_features=1200, bias=True)
    )
    (fc2_list): ModuleList(
      (0): Linear(in_features=1200, out_features=600, bias=True)
      (1): Linear(in_features=1200, out_features=600, bias=True)
      (2): Linear(in_features=1200, out_features=600, bias=True)
      (3): Linear(in_features=1200, out_features=600, bias=True)
      (4): Linear(in_features=1200, out_features=600, bias=True)
    )
    (fc3_list): ModuleList(
      (0): Linear(in_features=600, out_features=5, bias=True)
      (1): Linear(in_features=600, out_features=5, bias=True)
      (2): Linear(in_features=600, out_features=5, bias=True)
      (3): Linear(in_features=600, out_features=5, bias=True)
      (4): Linear(in_features=600, out_features=5, bias=True)
    )
    (batch_norm1): BatchNorm1d(1200, eps=1e-05, momentum=0.1, affine=True)
    (batch_norm2): BatchNorm1d(600, eps=1e-05, momentum=0.1, affine=True)
  )
)
number of trainable parameters =  263698876
Training with weighted distribution:  [0.9243703 0.9089229 0.8454356 0.6514159 0.6699155]

TRAINING : Epoch 1
number of train batches =  5191
0m 55s (- 46m 57s) (100 1%) 32.66
1m 47s (- 44m 42s) (200 3%) 33.91
2m 40s (- 43m 31s) (300 5%) 36.28
3m 33s (- 42m 41s) (400 7%) 38.56
4m 33s (- 42m 49s) (500 9%) 39.50
…
