…
 resume='', save_path='../model8_output/', seed=1111, start_epoch=0, task='yelp', test='test', tokenize=False, word_vectors_directory='../glove/', word_vectors_file='glove.6B.300d.txt')

data.py parse: ../data/yelp/gm_data/yelp/train.txt
data.py parse: ../data/yelp/gm_data/yelp/dev.txt
data.py parse: ../data/yelp/gm_data/yelp/test.txt
train set size =  600000
development set size =  50000
test set size =  50000
vocabulary size =  80001
number of OOV words =  48929
maxout num classes:  5
BCN init num_units:  5
BCN(
  (embedding_pos): EmbeddingLayer(
    (embedding): Sequential(
      (embedding): Embedding(37, 50)
      (dropout): Dropout(p=0.2)
    )
  )
  (embedding): EmbeddingLayer(
    (embedding): Sequential(
      (embedding): Embedding(80001, 300)
      (dropout): Dropout(p=0.2)
    )
  )
  (relu_network): Sequential(
    (dense1): Linear(in_features=350, out_features=300, bias=True)
    (nonlinearity): ReLU()
  )
  (encoder): Encoder(
    (rnn): LSTM(300, 300, batch_first=True, dropout=0.2, bidirectional=True)
  )
  (biatt_encoder1): Encoder(
    (rnn): LSTM(1800, 300, batch_first=True, dropout=0.2, bidirectional=True)
  )
  (biatt_encoder2): Encoder(
    (rnn): LSTM(1800, 300, batch_first=True, dropout=0.2, bidirectional=True)
  )
  (ffnn): Linear(in_features=600, out_features=1, bias=True)
  (maxout_network): MaxoutNetwork(
    (fc1_list): ModuleList(
      (0): Linear(in_features=4800, out_features=1200, bias=True)
      (1): Linear(in_features=4800, out_features=1200, bias=True)
      (2): Linear(in_features=4800, out_features=1200, bias=True)
      (3): Linear(in_features=4800, out_features=1200, bias=True)
      (4): Linear(in_features=4800, out_features=1200, bias=True)
    )
    (fc2_list): ModuleList(
      (0): Linear(in_features=1200, out_features=600, bias=True)
      (1): Linear(in_features=1200, out_features=600, bias=True)
      (2): Linear(in_features=1200, out_features=600, bias=True)
      (3): Linear(in_features=1200, out_features=600, bias=True)
      (4): Linear(in_features=1200, out_features=600, bias=True)
    )
    (fc3_list): ModuleList(
      (0): Linear(in_features=600, out_features=5, bias=True)
      (1): Linear(in_features=600, out_features=5, bias=True)
      (2): Linear(in_features=600, out_features=5, bias=True)
      (3): Linear(in_features=600, out_features=5, bias=True)
      (4): Linear(in_features=600, out_features=5, bias=True)
    )
    (batch_norm1): BatchNorm1d(1200, eps=1e-05, momentum=0.1, affine=True)
    (batch_norm2): BatchNorm1d(600, eps=1e-05, momentum=0.1, affine=True)
  )
)
number of trainable parameters =  68070076

TRAINING : Epoch 1
number of train batches =  18750
0m 59s (- 183m 57s) (100 0%) 22.44
2m 4s (- 192m 35s) (200 1%) 25.38
3m 3s (- 188m 9s) (300 1%) 31.00
3m 59s (- 183m 27s) (400 2%) 32.03
4m 57s (- 181m 0s) (500 2%) 38.25
5m 55s (- 179m 21s) (600 3%) 42.44
6m 51s (- 176m 54s) (700 3%) 42.88
7m 49s (- 175m 33s) (800 4%) 45.94
…
