…
lot_every=100, pos=True, print_every=100, resume='', save_path='../bcn_output/', seed=1111, start_epoch=0, task='yelp', test='test', tokenize=False, word_vectors_directory='../glove/', word_vectors_file='glove.6B.300d.txt')

data.py parse: ../data/yelp/train.txt
data.py parse: ../data/yelp/dev.txt
data.py parse: ../data/yelp/test.txt
train set size =  80000
development set size =  29313
test set size =  34486
vocabulary size =  526276
number of OOV words =  478641
maxout num classes:  5
BCN init num_units:  5
BCN(
  (embedding_pos): EmbeddingLayer(
    (embedding): Sequential(
      (embedding): Embedding(37, 50)
      (dropout): Dropout(p=0.2)
    )
  )
  (embedding): EmbeddingLayer(
    (embedding): Embedding(526276, 300)
  )
  (relu_network): Sequential(
    (dense1): Linear(in_features=350, out_features=300, bias=True)
    (nonlinearity): ReLU()
  )
  (encoder): Encoder(
    (rnn): LSTM(300, 300, batch_first=True, dropout=0.2, bidirectional=True)
  )
  (biatt_encoder1): Encoder(
    (rnn): LSTM(1800, 300, batch_first=True, dropout=0.2, bidirectional=True)
  )
  (biatt_encoder2): Encoder(
    (rnn): LSTM(1800, 300, batch_first=True, dropout=0.2, bidirectional=True)
  )
  (ffnn): Linear(in_features=600, out_features=1, bias=True)
  (maxout_network): MaxoutNetwork(
    (fc1_list): ModuleList(
      (0): Linear(in_features=4800, out_features=1200, bias=True)
      (1): Linear(in_features=4800, out_features=1200, bias=True)
      (2): Linear(in_features=4800, out_features=1200, bias=True)
      (3): Linear(in_features=4800, out_features=1200, bias=True)
      (4): Linear(in_features=4800, out_features=1200, bias=True)
    )
    (fc2_list): ModuleList(
      (0): Linear(in_features=1200, out_features=600, bias=True)
      (1): Linear(in_features=1200, out_features=600, bias=True)
      (2): Linear(in_features=1200, out_features=600, bias=True)
      (3): Linear(in_features=1200, out_features=600, bias=True)
      (4): Linear(in_features=1200, out_features=600, bias=True)
    )
    (fc3_list): ModuleList(
      (0): Linear(in_features=600, out_features=5, bias=True)
      (1): Linear(in_features=600, out_features=5, bias=True)
      (2): Linear(in_features=600, out_features=5, bias=True)
      (3): Linear(in_features=600, out_features=5, bias=True)
      (4): Linear(in_features=600, out_features=5, bias=True)
    )
    (batch_norm1): BatchNorm1d(1200, eps=1e-05, momentum=0.1, affine=True)
    (batch_norm2): BatchNorm1d(600, eps=1e-05, momentum=0.1, affine=True)
  )
)
number of trainable parameters =  44069776

TRAINING : Epoch 1
number of train batches =  2500
0m 46s (- 18m 29s) (100 4%) 33.22
1m 32s (- 17m 45s) (200 8%) 34.28
2m 20s (- 17m 10s) (300 12%) 34.56
3m 7s (- 16m 25s) (400 16%) 34.31
3m 54s (- 15m 36s) (500 20%) 36.50
4m 41s (- 14m 52s) (600 24%) 35.00
5m 27s (- 14m 2s) (700 28%) 36.62
6m 13s (- 13m 13s) (800 32%) 38.12
…
